models/dqn_pong.pth (torch, 932687 bytes, 11 tensors)

shared_fc1.weight f4 [256, 128]
000000 8a 1b 0a 3b 76 68 88 bd 6c cb f3 bc ee ae 5e 3d
       0.0021073543 -0.06660549 -0.029760085 0.054366045
000010 ed d3 84 bd 57 4a 83 bd 62 5f 11 3d db 7f c4 bc
       -0.06485734 -0.064106636 0.035491355 -0.023986747
000020 9a f3 a4 3d d9 aa 64 bd d9 34 94 bd cb a7 a3 bc
       0.08054276 -0.055826996 -0.072366424 -0.01997747
000030 ec d6 f1 3d da c3 d2 3c 9f 5c 61 3d bc 80 99 bd
       0.11808571 0.025728155 0.05501997 -0.07495257
000040 f3 a8 c7 bc 73 4a 91 3e 37 40 a6 3d de 58 87 bc
       -0.024372553 0.28377113 0.08117717 -0.016521867
000050 3e df b8 3c 31 8e 88 3d e1 82 a1 3d da dd 58 bd
       0.022567388 0.06667746 0.07886291 -0.05294595
000060 d3 97 9f bd 47 ae ae 3d d0 ad ac 3d bb 7a 92 3d
       -0.0779263 0.085293345 0.084315896 0.07152315
000070 d5 40 39 bd b9 c5 a0 3d 83 7d 93 bd 83 b6 af bd
       -0.045227844 0.078502126 -0.07201674 -0.08579733
000080 9f bf 8c 3d 21 75 ae bd 44 b1 4e bd 7e 95 51 3d
       0.06872486 -0.08518434 -0.050462022 0.051167957
000090 0a 0e 86 bd 91 de a0 bd 1e 24 72 3d 26 1c 81 3b
       -0.065456465 -0.07854951 0.059116475 0.003940123
0000a0 9f a7 28 bc bd 9c e9 3b c2 f2 e3 3a 6b e6 61 3c
       -0.01029387 0.0071292804 0.0017391073 0.013787846
0000b0 95 31 95 bc 3e 34 90 3d 65 7a ae bd f4 bd 1f bd
       -0.01821212 0.070412144 -0.08519439 -0.038999513
0000c0 bd 5b 2f 3d aa 13 03 3e cd c5 82 3d ad 68 82 3a
       0.042812098 0.1280047 0.06385384 0.0009949409
0000d0 b8 8d 51 bb 6b 60 b8 bc c8 dd da 3c 21 f9 b0 3d
       -0.003197534 -0.022506913 0.026717082 0.086412676
0000e0 09 c9 19 3d 5a 37 25 3d 72 9a 48 be 0c 1e 97 3d
       0.037545238 0.04033599 -0.19590166 0.07378778
0000f0 0d fb 9f bd 0c 83 7f 3d 38 4a c6 bb 50 a6 69 bb
       -0.07811556 0.062380835 -0.006051328 -0.0035652108
000100 de ac 6e 3c bb 05 d4 bb 59 a8 ac 3d ee ee 94 3c
       0.014567582 -0.0064704097 0.08430547 0.018180337
000110 32 5a 7c bd c8 a0 62 3d 97 3b 37 3d a6 74 b8 3c
       -0.061609454 0.055329114 0.044734564 0.02251656
000120 a3 0c 11 bc cc 0d 0b 3d 6f 9e ad bd 99 3c 6e bd
       -0.0088531105 0.033948705 -0.084774844 -0.05816326
000130 27 8c 4e 3d 02 59 8d bd 30 1e 55 bc 38 76 cd bc
       0.05042663 -0.069017425 -0.013007686 -0.025080785
000140 b1 54 96 3d 5b 83 4c bd 14 3b e2 3c 20 bc ef 3b
       0.07340372 -0.049929958 0.027616061 0.0073161274
000150 a0 98 34 bc 28 88 57 bc a0 50 21 3b 32 29 75 3d
       -0.011022717 -0.013155021 0.0024614707 0.05985374
000160 18 4b 82 bd b8 d8 e6 3c 00 98 16 bc a6 3a 6a 3d
       -0.06361979 0.028179511 -0.009191513 0.057184838
000170 00 49 41 3a 08 c6 ca 3c c8 8e cc 3c 9c 66 90 bc
       0.00073732436 0.024752632 0.024970427 -0.017627053
000180 f4 f8 a4 bd 45 b6 a1 3d 72 3b a3 bd ca 29 6d 3d
       -0.080552965 0.07896093 -0.07970323 0.05790118
000190 b8 62 c4 bc 48 db 54 3c 40 8a 84 3b b8 39 87 3c
       -0.023972854 0.012991734 0.004044801 0.016507015
0001a0 a0 6e 03 3d 5a 4e 83 bd 80 24 c3 bc f6 78 5f 3d
       0.032087922 -0.06411429 -0.023821115 0.054558717
0001b0 2a 04 1e bd 27 a9 59 bd 2e 15 a3 bd 52 11 40 bd
       -0.03857819 -0.053139832 -0.07963024 -0.046891518
0001c0 4e 96 52 3d 40 a7 22 3c 78 46 c2 bc ee b6 64 3d
       0.051412873 0.009927571 -0.023715243 0.055838518
0001d0 7c 02 8d bd fc 67 86 3c 70 cc 2c 3c 2e 16 1f 3d
       -0.068852395 0.016407005 0.010546789 0.03883951
0001e0 1c e8 96 bd 90 e8 55 3c 61 71 e9 3b cc 7a c6 bc
       -0.0736849 0.0130559355 0.0071241115 -0.024228476
0001f0 c2 82 e4 3c 00 62 fe 3c 91 fc 99 bc 59 ea 56 bd
       0.027894381 0.03105259 -0.01879719 -0.052469585
000200 58 54 1c bd 70 92 2f 3c 20 05 df bc 5e 99 1f 3d
       -0.038166374 0.010716066 -0.027224123 0.03896462
000210 fa 91 70 3d a8 e6 08 3d 46 f4 36 3d 79 00 64 bd
       0.058732964 0.033423096 0.04466655 -0.055664513
000220 e0 89 09 bd 4a c2 1e 3d 50 81 cd bc 31 a9 b2 bd
       -0.033578753 0.038759507 -0.025086075 -0.08723677
000230 22 b7 32 3d 03 a0 4b bd 28 a4 e8 3c 34 80 92 bd
       0.04363168 -0.049713146 0.028398588 -0.07153359
000240 31 60 7e bd eb 3b 94 3d 15 78 8e bd a0 6c 2b bb
       -0.062103454 0.07237991 -0.069564976 -0.0026157275
000250 f2 b9 35 3d 30 75 06 3d 08 51 12 bc 50 dd 24 bc
       0.044366784 0.032826602 -0.008930452 -0.010062531
000260 dc c7 72 bd b6 39 d4 bc de b0 10 3d 20 c6 86 bc
       -0.059272632 -0.025906425 0.035324924 -0.016451895
000270 70 56 2e bd a3 39 42 bd 86 f0 a4 bd 31 60 95 3d
       -0.042562902 -0.047418248 -0.08053689 0.07293738
000280 8d f4 65 bd 90 9f 98 3c 2c 80 cd bc bc aa 98 bd
       -0.056141425 0.018630773 -0.025085531 -0.0745444
000290 80 6b da 3a 96 03 17 3d 8e 3a 99 bd 9a f8 6c bd
       0.0016664118 0.036868654 -0.074818715 -0.057854272
0002a0 0f 54 85 3d 57 13 92 3d 28 a4 e1 3c 6e 05 19 3d
       0.065101735 0.07132595 0.027544096 0.037358694
0002b0 6c 8d cb bc c2 2d 62 bd 41 fb 93 3d ba 01 59 3d
       -0.024847709 -0.05521942 0.07225657 0.052980162
0002c0 50 88 a9 3c 60 aa 21 3c f0 d4 ff 3c c2 dd 71 bd
       0.020694882 0.009867281 0.031229466 -0.059049375
0002d0 17 be 81 3d 40 8e a3 bc c0 72 dc 3c aa 1f b4 bd
       0.06335085 -0.019965291 0.026910186 -0.08795102
0002e0 08 27 af bd 87 df 8d bd b5 35 87 3d 0c 1a 87 bd
       -0.085523665 -0.069274 0.06602041 -0.06596765
0002f0 6e 30 59 3d 1f d7 84 3d b5 f7 86 3d 10 cd 0d bc
       0.0530247 0.064863436 0.06590215 -0.008654848
000300 e8 2d bc bc c0 40 45 bd ea 7f 19 3d 5b 83 8f 3d
       -0.022971109 -0.048157454 0.037475504 0.07007476
000310 85 c2 03 bd f0 83 06 3d b4 4d 88 3c 18 2e c1 bc
       -0.03216793 0.03284067 0.016638614 -0.02358155
000320 de 2b b3 bd c4 2e 6c bd 7c b8 1a bd 35 07 9a 3d
       -0.087486014 -0.057661787 -0.037773594 0.07520906
000330 b8 6e ae bd 5d 91 1a bd 32 fa 02 3d a6 7d de bc
       -0.08517212 -0.037736285 0.031976886 -0.027159523
000340 10 04 f5 3c be 1c 0e bd 10 b9 39 bd 00 93 94 b9
       0.029909164 -0.03469538 -0.045342505 -0.00028338283
000350 6b 24 a6 3d 51 d1 a2 3d cd 24 83 bd 80 c9 0b ba
       0.08112415 0.0795008 -0.064035036 -0.0005332455
000360 8c 1c 82 3c 93 8f 48 bd 19 07 87 bd 0a 56 19 bd
       0.015882753 -0.048965048 -0.06593151 -0.03743557
000370 00 cc 76 3b 3c 9a cf 3c 70 d1 86 3c d5 e0 1b bd
       0.0037658215 0.0253421 0.01645729 -0.038056213
000380 8d f2 92 3d 76 e8 4d 3d 96 ce 54 3d 48 ff 04 3d
       0.07175169 0.05027052 0.05195483 0.032470018
000390 fe a5 39 bd f6 6e 39 3d 65 d1 a5 3d d0 f6 cc 3c
       -0.045324318 0.045271836 0.080965795 0.025020033
0003a0 b8 38 ed 3c e8 16 5c bd 26 ff 4a 3d d8 0f 2b bc
       0.02895771 -0.053732783 0.049559735 -0.010440789
0003b0 ce cc 4f 3d 99 60 0f bd 6e bc 5f 3d 5f 36 9e 3d
       0.050732426 -0.035004232 0.05462306 0.07725214
0003c0 79 e7 8f 3d 84 20 cd bc b2 b3 56 bd ac 36 c4 3c
       0.07026572 -0.025039919 -0.052417465 0.02395185
0003d0 c8 b7 9c 3c 4a 29 66 3d d4 8a a5 bc 26 9a 07 bd
       0.019130602 0.05619172 -0.0202078 -0.03310599
0003e0 58 72 72 bc 98 17 8d bd 3e 9c 7b bd 51 ad 1a bd
       -0.0147977695 -0.06889266 -0.0614283 -0.037762944
0003f0 b2 79 76 3d 72 e6 70 3d 90 6a 14 3c cc 85 98 bc
       0.06017465 0.05881352 0.00905861 -0.018618487

shared_fc1.bias f4 [256]
000000 c9 20 8b 3c 50 be 8b 3b fa 20 99 bd 61 55 17 bd
       0.016983407 0.0042646304 -0.07476993 -0.036946658
000010 18 73 9a 3d 01 3b d8 3c 8f b4 17 3c 35 5d 84 bc
       0.07541484 0.026395323 0.009259357 -0.016157726
000020 c2 2c 61 bd 2c 28 14 3d 29 88 95 bb 90 1b f4 3c
       -0.054974325 0.036171123 -0.0045633507 0.0297983
000030 ec 6a 44 3d d9 ff 58 3d 2b 9e 84 3d 3f 7e 54 3d
       0.04795353 0.05297837 0.06475481 0.05187821
000040 88 ce b4 bd 74 17 87 bd 3b 09 9d 3d 35 e6 9f bd
       -0.08828455 -0.0659627 0.07667776 -0.078075804
000050 2a 23 8f bd 7c be 5f bd d8 86 6e bd 31 77 82 bd
       -0.06989129 -0.05462502 -0.058234066 -0.0637039
000060 be 18 b0 bd 30 7f 26 bc 84 aa b6 3d ec c5 84 bd
       -0.08598469 -0.01016216 0.08919242 -0.06483063
000070 d6 fb fb 3c d3 3f 18 3b 8f 5b bb 3d f1 f3 2b bd
       0.030759733 0.0023231402 0.09148323 -0.041980688
000080 51 54 dc bb e0 1d 44 3d d2 08 55 3d 20 f5 7f bb
       -0.0067239185 0.047880054 0.052010365 -0.0039056018
000090 c0 44 3b bb a9 47 59 3d 30 97 bb bd 97 d2 69 bd
       -0.0028574914 0.053046856 -0.09159696 -0.0570856
0000a0 53 61 13 bd 77 38 8b bd f5 f3 a1 3d 40 57 16 3d
       -0.035981487 -0.06797879 0.07907859 0.0367043
0000b0 37 b1 7d bd e1 b9 c5 3a 80 2a 8a bd cc 1d 5a 3d
       -0.061936583 0.0015085303 -0.067463875 0.053251073
0000c0 a5 02 92 bd e8 3f 97 3c 55 e3 a3 3d c3 05 a1 3d
       -0.07129411 0.01846309 0.080023445 0.07862427
0000d0 68 0e 38 bc 7b bf 95 bd 6f e8 c3 ba 5f fd 87 bd
       -0.0112339035 -0.073119126 -0.001494659 -0.066401236
0000e0 3d c9 2f 3d 50 e8 0d 3d 8c d8 6c bd c8 1c 65 bd
       0.042916525 0.03464538 -0.057823703 -0.05593565
0000f0 0e b6 b1 bd 19 cb 97 bd e6 7b 53 3d 8f 0a 3c bd
       -0.08677302 -0.07411785 0.05163183 -0.045908507
000100 fc 2e 84 3d 80 4a 71 3d 13 27 9f 3c 0e 16 3e bd
       0.06454274 0.05890894 0.019427812 -0.04640775
000110 7b ca 87 3c f0 18 9c bd 23 36 8f bd b9 82 6a bd
       0.016576042 -0.07621944 -0.06992748 -0.057253573
000120 85 e1 b9 3b 65 45 0d 3c 87 37 59 bd 89 d7 3d bd
       0.005672636 0.008622502 -0.05303147 -0.04634813
000130 28 d4 c6 3c 9b 19 6c bd 46 47 fe bc 7e 44 ae bc
       0.024271086 -0.057641607 -0.031039845 -0.021272894
000140 a4 31 ab bd 54 dc b1 3c 30 b4 a6 bd 14 35 c1 3b
       -0.083590776 0.021711506 -0.08139837 0.00589622
000150 b2 fe d7 bc 1e 8e 2f bd 08 d1 13 3d 5e ca 71 bd
       -0.026366565 -0.042860143 0.03608802 -0.059030883
000160 3e 82 ad bb 80 1d 7f bd 7e be b0 3d f1 47 aa 3d
       -0.005295067 -0.062283993 0.086300835 0.08314503
000170 71 66 90 bd 4e d2 00 3c 3f 64 3a 3d b4 a2 4a 3a
       -0.07050789 0.007862641 0.04550576 0.0007729933
000180 63 03 00 3d e7 0d 9b 3d 73 e0 7e 3d d6 0c 1f 3d
       0.03125323 0.07571011 0.06222577 0.0388306
000190 d4 f0 19 bd 2b 26 97 3d a3 17 64 3d 1b 10 9f 3d
       -0.037583187 0.07380327 0.055686604 0.07766744
0001a0 e7 b0 83 bd 0d 4f 70 3d 9e b6 78 bd 1b 5a e3 bc
       -0.06430226 0.05866914 -0.060721032 -0.027752927
0001b0 74 d7 59 bd c6 ea e5 bc 82 42 ee 3b 51 92 42 3d
       -0.053183988 -0.02806605 0.007271112 0.04750282
0001c0 c0 11 90 3d e0 82 b1 bd c6 ae 87 bc 9e 9b 2f 3d
       0.070346355 -0.086675406 -0.01656283 0.042873017
0001d0 ea 8d 62 3d 82 39 82 bd 3b fc 85 bd 8e 2c 40 3d
       0.05531112 -0.06358625 -0.0654225 0.04691749
0001e0 83 ca 3c bd 82 64 a1 bd 33 7f 82 bd d5 a8 9a bd
       -0.046091568 -0.078804985 -0.063719176 -0.075517334
0001f0 2a 9c be bc 6f 78 98 3d 91 df 04 bc 6a 86 2e bd
       -0.023267824 0.07444846 -0.008109943 -0.042608656
000200 2d 14 ab 3d f7 fc 6d bd 9c e6 27 bd 04 f4 0d 3d
       0.083534576 -0.058102574 -0.04099141 0.03465654
000210 fd a1 32 bd 89 0f aa 3c 0b fb 77 bd dc e0 4a bd
       -0.043611515 0.02075936 -0.060542148 -0.04953085
000220 2b 72 59 3d f8 3b ae 3c f6 76 78 3b 82 9a 57 3d
       0.053087395 0.02126883 0.0037912703 0.052637585
000230 df 7f 9f 3d e8 31 3b 3b 9c f7 b6 3c 90 f5 87 3d
       0.07788061 0.0028563682 0.022334866 0.06638634
000240 44 73 15 bc 36 cd 49 bc 92 d4 2d bd 48 68 a3 bd
       -0.00912172 -0.0123169925 -0.04243905 -0.079788744
000250 80 97 86 3d 4c 8d ac bc a0 5f 9d bd 80 bb 01 3d
       0.06571865 -0.02106347 -0.07684255 0.031672955
000260 00 13 28 3c 67 f8 1c 3c c0 d3 40 3c 6d 6e 93 3c
       0.010258436 0.009580708 0.011769235 0.017996991
000270 d8 89 97 bc 08 09 00 3d 34 cb 0b bc ff a5 aa 3d
       -0.018498346 0.031258613 -0.008532334 0.083324425
000280 b2 72 2f 3d 2a fd 8a bd cd bd ad bd ad 25 94 3d
       0.04283399 -0.067865685 -0.08483467 0.072337486
000290 17 f7 88 3d 48 2b 5d 3c a5 a5 08 bd e2 52 a4 bd
       0.06687754 0.013499089 -0.033361096 -0.08023621
0002a0 e8 90 98 bd ea 8e e6 3c 86 d2 0e bd aa 47 60 bd
       -0.07449514 0.028144319 -0.03486874 -0.054755844
0002b0 f3 78 a7 bc d4 b8 03 bc b2 69 b4 3c db 3e 94 bd
       -0.020443415 -0.008039672 0.022023056 -0.07238551
0002c0 83 98 cc 3c da e7 8c 3d 10 bd 7b bd 0c d1 8c 3d
       0.024975067 0.0688016 -0.0614596 0.0687581
0002d0 58 fb a0 bd 42 37 a2 bd b1 ca 66 bd 95 dd 93 bd
       -0.0786044 -0.07920696 -0.056345645 -0.07219998
0002e0 ae e8 27 3d 71 f5 26 3d 47 58 fd 3c 9a 06 83 3d
       0.040993385 0.040761415 0.030925883 0.063977435
0002f0 25 ca 20 bd 32 6d 73 bd 6c 0f 93 bd 12 9a ae bd
       -0.03925528 -0.05943031 -0.07180676 -0.0852548
000300 bc 9e bf 3c 8f d7 31 bd 39 a2 7a 3d 01 ae 95 3d
       0.02339112 -0.043418463 0.061189864 0.07308579
000310 7f 31 91 bd 3b 0c 2a 3d 04 b0 86 3d ad 30 74 bc
       -0.07089519 0.04151557 0.06576541 -0.014904183
000320 8f ec 76 3d f5 3d c5 bc a0 24 70 bc 58 4a 3e bc
       0.060284194 -0.024077395 -0.01465717 -0.011614405
000330 11 a0 51 bd 94 41 0f 3d 08 98 9d 3d 96 9c 62 bc
       -0.05117804 0.03497465 0.07695013 -0.013831278
000340 3b ea 99 3d 81 97 8c bd 6c c9 51 bd 9e a6 7f 3c
       0.07515379 -0.068648346 -0.05121748 0.0156036895
000350 78 82 2d bd ac 0e 9e 3d 3e 54 de bc 1c 9e 02 3d
       -0.042360753 0.07717642 -0.02713978 0.031889066
000360 34 2a 07 3d 8a ba 67 bd a6 d8 38 3d 17 57 9c bc
       0.032999232 -0.056574382 0.045128487 -0.019084496
000370 7b e7 76 3d 22 5d dd 3c b0 c0 9c 3c 65 f5 87 3d
       0.06027935 0.027021948 0.01913485 0.06638602
000380 81 5b a7 bd 42 d7 d3 3c 13 a1 ad bd f7 a1 36 bd
       -0.0817175 0.025859479 -0.08477988 -0.044588055
000390 b1 35 9e bd 35 42 ac bd 79 7f 60 bd 7b 0a 47 3d
       -0.077250846 -0.084110655 -0.054809067 0.04859398
0003a0 33 b7 57 bd 7d 32 9f bd 52 47 36 3d af d0 96 bc
       -0.052664947 -0.07773302 0.04450161 -0.018410055
0003b0 7b d5 a9 bd b4 01 85 3d 11 b2 77 bd e6 a6 22 bd
       -0.08292671 0.064944655 -0.06047255 -0.039709948
0003c0 54 d3 ff 3c de 89 08 3c 5f ee 94 bb b0 a7 13 bb
       0.031228699 0.008333651 -0.0045450176 -0.002253037
0003d0 e0 e4 9d bc 56 7d a2 bd 43 45 1c bd 97 ed 9e 3d
       -0.019274175 -0.07934062 -0.03815199 0.077601604
0003e0 62 5d 9c 3d 36 28 32 bd 2a 24 a1 3d 05 0e 22 3d
       0.07634999 -0.04349538 0.07868226 0.03956415
0003f0 f4 9c 8f 3c 74 c3 aa bd 0f c5 60 3d 41 4a 52 bc
       0.017530896 -0.08338061 0.05487543 -0.012835086

shared_fc2.weight f4 [256, 256]
000000 88 eb f4 3d d0 53 33 3c 6b e7 a3 3d 89 d5 3c bc
       0.119589865 0.010945275 0.08003124 -0.01152552
000010 54 dd cd bc 21 56 a5 bd 72 69 b4 bc 7a 20 06 3c
       -0.025129952 -0.080730684 -0.022022936 0.008186454
000020 80 48 32 bb 3f aa 62 3d 6a f2 36 3d 00 60 97 3a
       -0.0027203858 0.05533814 0.044664778 0.0011548996
000030 60 64 d0 bb 5c 49 d7 3c c1 12 e4 ba 09 7b 02 3d
       -0.006359622 0.026280098 -0.0017400609 0.031855617
000040 06 79 41 bc 98 6e 17 3c 70 32 3e bc 60 72 0d bd
       -0.011808639 0.009242676 -0.011608705 -0.034532905
000050 3c 1f 33 3c 40 4f 5f 3d 40 93 ee bc a2 16 59 3d
       0.01093274 0.054518938 -0.029122949 0.0530001
000060 a0 d2 69 3b e4 2e ce 3c 1f c3 77 3c a0 a3 f3 3c
       0.003567852 0.025168844 0.015122204 0.029741108
000070 2b 97 5f bd 25 8c a8 bd 0e f0 b4 bc 3d 52 a3 bc
       -0.054587524 -0.082298554 -0.022087123 -0.019936675
000080 9f 33 a3 bc c0 69 9a 3d ba f1 81 3c 28 14 43 3d
       -0.019922076 0.075397015 0.015862335 0.047626644
000090 c0 81 ce bb f4 08 23 bd 6f b4 99 3d d7 00 2b bd
       -0.0063020885 -0.03980346 0.07505118 -0.041748848
0000a0 a0 3b b5 bc 05 1f 39 3d af c4 a4 bc 60 33 63 3d
       -0.022123158 0.0451956 -0.020113317 0.055468917
0000b0 b7 0b fe 3d 3c b7 ab 3d 85 01 45 bd 54 97 c7 bc
       0.12404578 0.083845586 -0.048097152 -0.024364151
0000c0 8b 8a bf 3c 00 cc eb 3c ec 44 10 bd 16 1e fd bb
       0.023381492 0.028783798 -0.03522198 -0.007724534
0000d0 34 e5 1d bd f2 0f 61 bd 4b 0b a2 3d 0e 69 c7 3c
       -0.038548663 -0.054946847 0.0791231 0.024342086
0000e0 07 bd 44 3d 11 8b c6 3c 4e f2 66 bd 3d a0 70 3d
       0.048031833 0.024236234 -0.056383424 0.058746565
0000f0 dc d0 0b 3d 60 98 17 3e ce 55 72 bd 54 4d 4c bd
       0.03413473 0.1480422 -0.05916386 -0.049878433
000100 8b aa 71 3d be 32 2f bd 77 fe b6 bc 63 cc 46 3d
       0.059000533 -0.042773 -0.022338135 0.048534762
000110 23 07 55 bd 72 f6 6e bb b7 f4 c5 bd 5f 24 b6 3a
       -0.05200876 -0.003646281 -0.09665816 0.0013896337
000120 7e 7e c0 3c f1 92 98 bc e8 84 5c bd 72 48 f7 bc
       0.023497816 -0.018624755 -0.053837687 -0.030185912
000130 3c e0 2c bb 53 0c 02 bd 1e b2 58 bd f7 1e 3f 3e
       -0.0026378771 -0.031750035 -0.05290424 0.18664156
000140 c8 00 59 3d 67 d0 6d 3d 51 b2 3e 3d a5 85 c9 3a
       0.05297926 0.058060076 0.046556775 0.0015374912
000150 22 9d 4f bb 66 1f 37 bd 51 ce ab bd fe 60 8c 3c
       -0.0031679352 -0.04470768 -0.08388961 0.017136093
000160 6a 11 2b bd dc cb a2 3c 43 f4 e8 3c c9 42 11 3d
       -0.041764654 0.019872598 0.028436786 0.035464082
000170 f4 54 76 bd 80 b5 73 bc d0 99 36 bd ce d4 ea 3c
       -0.06013961 -0.014874816 -0.04458028 0.028665926
000180 3a ed 54 bd 2e c1 1e bd 3f aa f9 3c 28 db 49 bc
       -0.05198405 -0.03875845 0.030476687 -0.012320317
000190 80 f0 b6 3b 4c ab 37 3c 69 c2 52 3b 5c 66 73 bd
       0.005582869 0.011210274 0.0032159335 -0.05942379
0001a0 41 71 21 bd 74 9d 49 3d e1 4e 1e 3d 9f a5 64 3c
       -0.039414648 0.049222425 0.038649444 0.013955503
0001b0 37 8a c3 3d de 8c 77 3d 0a 5e ad 3b 7b 1b 6b bb
       0.09547847 0.060437076 0.0052907513 -0.0035874534
0001c0 56 cb 7f 3c f9 87 53 bd f7 c6 88 3c 48 6f 51 bc
       0.015612444 -0.051643346 0.016696436 -0.012782879
0001d0 20 6d 0d bb d4 2e 7e bd 42 af 34 3d 69 c6 7b 3d
       -0.0021579936 -0.062056378 0.04411245 0.061468516
0001e0 1c d4 4f bd 8c 2c 7b bd 64 66 f5 3c 66 20 77 bd
       -0.050739393 -0.06132178 0.02995605 -0.060333632
0001f0 69 99 d0 bc d8 24 dc 3c 19 17 6e bc 73 e4 9d bd
       -0.025463777 0.026873037 -0.014531874 -0.07709589
000200 d6 f2 c5 bc 31 2e ac bd 07 6f 67 bd 1a 15 db bd
       -0.024163645 -0.08407248 -0.05650237 -0.10697384
000210 0a d3 4e 3d c3 3c aa 3d 9d 96 40 3d e9 78 2f 3c
       0.05049423 0.08312371 0.047018636 0.01070998
000220 3f 95 03 bd 60 73 23 bc 6a 56 72 3c 2c 3e 07 bd
       -0.032124754 -0.009976238 0.0147911105 -0.033018276
000230 00 60 6d 3c c6 f9 29 bd 40 7b 5d bc ca 73 75 b9
       0.01448822 -0.041497968 -0.013518155 -0.00023408156
000240 cd 71 09 bb dd 6d 35 bd a3 cf 27 3d d8 39 2c 3d
       -0.0020972372 -0.044294227 0.040969502 0.04204735
000250 67 68 12 be 6f b8 e1 3b 00 ef 26 3c 5c 23 42 bd
       -0.14297639 0.0068884413 0.010188818 -0.047397003
000260 6e 44 7c 3d 84 02 a9 3d a9 40 d8 3d 4e 1d 79 3c
       0.061588697 0.08252433 0.10559208 0.015204741
000270 ef e0 0e bd a0 ab 4d bc 42 24 d8 bc 91 46 52 3d
       -0.034882482 -0.012553126 -0.026384477 0.05133683
000280 99 d3 8e 3d 70 78 d3 3c 68 78 01 bd b4 92 04 3d
       0.06973953 0.025814265 -0.03160897 0.03236647
000290 be bd 68 bd 00 7a dc 39 88 85 37 bb a4 89 96 3c
       -0.056821577 0.00042052567 -0.0028003175 0.018376179
0002a0 a8 ee 84 3c 3e 59 8b 3d e0 0b d7 bb 47 15 34 bd
       0.016227081 0.06804131 -0.006562695 -0.043965604
0002b0 a6 2f c5 3c ae 2d af 3c 0c 65 a7 bc f8 7c 0a bd
       0.024070572 0.021384086 -0.020433925 -0.033810586
0002c0 0b bd b4 bc 0d 7e ab 3c 19 82 5f 3d 8e 96 7d 3d
       -0.022062799 0.02093413 0.05456743 0.06191116
0002d0 24 7f 92 3c c0 00 24 bc 90 79 b6 bc 99 7c c2 3c
       0.017882891 -0.010009944 -0.022274762 0.023741053
0002e0 03 31 d6 bc 91 08 2d 3e d3 52 9b 3c dc c8 f4 3c
       -0.026146417 0.16897799 0.018960392 0.029880933
0002f0 f6 dd 3d 3d cc 79 85 bc 51 8f 80 bd 58 46 af bd
       0.046354257 -0.016293429 -0.062773354 -0.08558339
000300 d5 02 14 bd 53 cc 08 3d 6f 20 80 3b 28 64 fb bc
       -0.036135513 0.033397984 0.0039101164 -0.030687407
000310 1b 53 88 3d 47 a6 da 3c 37 11 39 bd 65 28 0e be
       0.06656476 0.026690615 -0.045182433 -0.13882597
000320 d1 fe 1b bd b9 7c b5 bc e4 de 0b 3d 4f 51 3c 3d
       -0.03808481 -0.022154199 0.034148112 0.04597598
000330 a4 41 3e 3d 96 d8 88 bd 44 c8 b3 3d 86 ed a4 bd
       0.04644932 -0.066819355 0.08778432 -0.080531165
000340 7a ac 38 3d 7a 1e 62 3d 14 61 1c 3e 41 1b 02 bd
       0.04508636 0.055204846 0.15271407 -0.031764273
000350 c4 13 12 3c 38 3e bb bd f8 45 97 bc 64 78 f5 bc
       0.008915845 -0.09142727 -0.01846598 -0.029964633
000360 c3 f5 8b bb 55 a0 8e bd b0 af 86 3c 1b d3 08 bd
       -0.0042712404 -0.06964175 0.016441196 -0.03340445
000370 df f1 74 bd 21 a4 58 3d 9f 23 30 3d 40 ed 5c 3b
       -0.05980098 0.0528909 0.04300272 0.0033710748
000380 e4 a0 59 bd ae f9 13 bd 62 f7 7a bd 4c c7 bd 3c
       -0.053131953 -0.036126785 -0.06127108 0.023166321
000390 88 32 74 3d 37 ff 0d 3d e8 f1 07 bc 39 7d 83 3d
       0.059618503 0.03466722 -0.008297421 0.06420369
0003a0 b2 3c e1 bd d9 5e 20 3d 8a 9b 5f bd 51 95 8c bc
       -0.10997905 0.039152954 -0.054591693 -0.017161043
0003b0 34 16 c3 3c a6 e0 04 bb 89 4e b3 3c 80 c0 c7 3c
       0.023814298 -0.0020275502 0.021888034 0.024383783
0003c0 d8 48 74 3c 0d 9b b6 bd 8f 01 a0 bd 16 21 3a 3d
       0.014909945 -0.08916292 -0.07812797 0.04544171
0003d0 ec 03 e2 3c 19 fb ff bc e0 bd 01 3d 7a 1c 18 bd
       0.02758976 -0.031247662 0.03167522 -0.037136532
0003e0 85 63 2a 3d 68 72 ff bc d7 53 4d 3d 68 43 17 be
       0.041598815 -0.031182483 0.050128784 -0.14771807
0003f0 38 70 8e bc 50 bf c5 3d dc 09 49 3c ac 9d a1 bd
       -0.017387494 0.096556306 0.012270417 -0.07891402

shared_fc2.bias f4 [256]
000000 76 47 0d 3d d4 06 3b 3c e8 b0 cd 3c 47 65 62 3d
       0.03449198 0.011415202 0.02510877 0.055272367
000010 98 b9 4e bd 6b 3c 7c 3d 5b 10 14 bc 8b bb 59 ba
       -0.050469965 0.061581057 -0.009037103 -0.0008305839
000020 8e 20 0a 3d 86 cf ec bc 28 69 0f 3d 47 98 be bc
       0.033722453 -0.028907549 0.035012394 -0.02326597
000030 6f 03 35 bd 48 7d 3f 3c 46 15 e7 bc 36 18 f8 bc
       -0.044192728 0.011687584 -0.028208386 -0.030284982
000040 eb d2 47 bc e8 7b a4 bc ac 0b dd bc 22 6d 69 ba
       -0.012196283 -0.020078614 -0.026983105 -0.00089045067
000050 fd 92 74 bd 0e a2 0f 3d 98 4c 60 3c 33 f8 b3 3c
       -0.05971049 0.035066657 0.013690136 0.021968937
000060 13 59 09 3d a6 50 75 3d 96 32 0d bd 46 3c 7c bd
       0.033532213 0.059891365 -0.03447207 -0.06158092
000070 2c 0b 66 bd a3 b4 4a bc 95 2b 15 3c 9e f6 74 3d
       -0.056162998 -0.012372169 0.009104629 0.059805505
000080 7a 07 4d bd f9 e7 da bb ec 29 54 bb c7 20 81 bd
       -0.05005596 -0.0066804853 -0.003237362 -0.0630508
000090 9e b7 16 3d 0e 91 05 bd 07 51 84 bd 51 55 44 3d
       0.036796205 -0.032609038 -0.06460767 0.047932927
0000a0 d5 cc ab 3c 00 2d a7 3c 11 5a 6b 3c 84 e0 ad 38
       0.020971695 0.0204072 0.014364735 8.291102e-05
0000b0 e0 6c 0f 3c 29 54 00 bc 83 28 8a 3c cb 76 7a 3d
       0.008753985 -0.007832565 0.01686502 0.061148446
0000c0 c3 9f 03 3d 11 95 9b 3b d9 3a d2 3c d3 9b 37 bd
       0.032134783 0.0047479947 0.025662826 -0.04482634
0000d0 26 b7 85 bd 00 0b 05 3d be e2 35 bc d9 c5 6d 3b
       -0.065290734 0.032481194 -0.011101423 0.0036281256
0000e0 22 34 34 ba 5b c7 3d bd 2d ee c8 bc 54 3a a3 3c
       -0.00068742235 -0.0463327 -0.024527634 0.019925274
0000f0 b7 85 35 3d 40 4f 74 3d b4 45 85 3c d7 4f 2d bd
       0.044316974 0.05964589 0.016268589 -0.04231247
000100 bb 75 6c 3d a3 65 53 3d 5b 36 2a 3d 79 47 35 3d
       0.057729464 0.0516106 0.041555744 0.044257615
000110 af 5c 33 bd d0 5f af 3c c0 82 09 3d 2f 45 9f 3c
       -0.04378956 0.021407992 0.03357196 0.019442169
000120 eb 63 f4 bc 2d 39 8c 3b ec 1e 99 bb 38 ac 33 bd
       -0.0298328 0.004279277 -0.0046728756 -0.043865412
000130 58 6f 76 3d 2f 5d 46 3c 40 ce 60 bd bc b0 61 bd
       0.06016478 0.012107178 -0.054884195 -0.055100188
000140 eb 3a 25 bd 4f 61 58 bd 4a 4d 82 bd b0 54 14 bd
       -0.04033939 -0.052827176 -0.06362398 -0.036213577
000150 a1 09 37 3d 9c 2f 33 3c de 68 65 3c 13 a1 2e 3d
       0.044686917 0.010936644 0.014002053 0.04263408
000160 b9 36 44 bc c1 1c 74 3c 02 5a 2c bd 95 6c 6b bd
       -0.0119759375 0.014899434 -0.042078026 -0.0574766
000170 91 15 14 3d ba 0b 43 3d d4 9a 25 3d 8d 88 1d bc
       0.03615338 0.047618605 0.04043086 -0.009615076
000180 d6 3b 0a bd 72 18 4e ba b8 8b 69 3d 79 d1 30 3d
       -0.03374847 -0.0007861919 0.05701801 0.04316852
000190 7a 94 5b 3d 58 27 fb bb c8 cc ed bc 76 db 45 3d
       0.053608395 -0.0076646022 -0.029028311 0.048304997
0001a0 5c 6d 8b 3b 9a 6f 18 bc 2e 22 68 3d cb f8 ff 3c
       0.00425498 -0.009303952 0.05667322 0.031246563
0001b0 06 8d 44 bd 84 e1 34 bc d4 83 99 bb b8 7f 99 bc
       -0.047986053 -0.011040095 -0.0046849046 -0.018737659
0001c0 b1 b6 0b 3d 58 33 5c 3d 96 f8 2a 3b 14 2b 67 3c
       0.034109775 0.053759903 0.002608811 0.014109392
0001d0 32 c1 2d 3d e3 e1 61 3d 0c 2d 9e 3c fb 8f 0f bc
       0.042420574 0.055147063 0.01930859 -0.008762355
0001e0 15 da 17 bd 0f 21 bf 3c 61 43 27 3d 53 a1 1f bd
       -0.037073214 0.023331193 0.040835742 -0.03897221
0001f0 cf d0 be bc 89 8f 14 ba e1 1b fe 3b 9a 6b 4b bd
       -0.023292927 -0.00056671404 0.0077547883 -0.049663164
000200 8e 06 a8 3c 9d d8 1f 3d 85 83 9d 3c 83 b5 4f bd
       0.020510938 0.039024938 0.019227752 -0.050710212
000210 7d 5e cf 3c 04 c5 68 3d 3f 05 21 bd 19 a8 45 3d
       0.02531361 0.056828514 -0.039311644 0.048256014
000220 96 a8 10 3d b5 52 ea bb e3 19 3b 3c 61 1e 8d bc
       0.035317026 -0.0071509727 0.011419746 -0.0172264
000230 6b a0 0b bd 1f f1 06 bc 09 ea 0d 3b 37 9c 03 3d
       -0.034088533 -0.008236199 0.0021654388 0.0321314
000240 ae 73 df bc 70 15 3d bd 0a 4d cf 3c 4e 37 b5 bc
       -0.02727684 -0.046163023 0.02530529 -0.022121098
000250 f5 84 7a 3a 1a f6 42 3c 6d b7 4e 3d 5d 68 41 bc
       0.00095565553 0.0118994955 0.050467897 -0.011804667
000260 f3 e6 4f bd 3b 1e 04 3b cf 62 11 bd d4 29 f6 bc
       -0.05075736 0.002015962 -0.03549462 -0.030049242
000270 1c 19 c2 3c a2 85 4c bd 45 87 0d 3d 9c 95 30 bd
       0.023693614 -0.04993213 0.03455283 -0.04311143
000280 23 d9 2a bc 25 46 8b 3a 40 28 a4 bb 7f 13 8b 3a
       -0.010427746 0.0010625763 -0.005009681 0.0010610669
000290 c0 40 0f bd 74 b6 ea bc 00 76 f1 bc ed e1 20 3a
       -0.03497386 -0.028651454 -0.029475212 0.0006137181
0002a0 42 09 01 bc c7 2f 0a 3d d9 71 47 3d 97 70 5c bd
       -0.007875742 0.03373697 0.048692558 -0.05381831
0002b0 a7 01 02 3d 1a fd 5d bd 0a 15 dd 3c 71 36 eb 3b
       0.031739857 -0.054196455 0.026987571 0.007178121
0002c0 90 bc 48 bd ad 82 de 3c f6 4e e8 bc 08 d5 6c bd
       -0.049007952 0.02716192 -0.028357964 -0.05782035
0002d0 e8 b3 ea bc 30 da 04 bd 7f 44 5f 3d e6 c1 7e 3b
       -0.02865024 -0.032434642 0.054508682 0.0038872897
0002e0 c3 d8 90 3c 4c e9 25 bd e8 df cf bc d6 73 38 3d
       0.017681485 -0.040505692 -0.025375322 0.045032345
0002f0 c0 db 77 bb 0e 38 eb bc a4 8f 9a bc a5 61 1d 3d
       -0.003782019 -0.028713252 -0.018867321 0.0384232
000300 f4 e9 a6 3c de 04 55 bd 2c 2c 69 bd 50 63 4b bd
       0.02037523 -0.052006595 -0.05692689 -0.04965526
000310 27 45 43 3d a6 56 a2 3c 7f 96 a6 3c a2 5d 24 bd
       0.04767337 0.019816708 0.020335434 -0.040128358
000320 25 50 80 3c 02 40 41 3c cc 19 b1 bc d5 5e 7e 3d
       0.015663216 0.011795046 -0.021618746 0.062102158
000330 3a 09 2d bd 94 48 4f bc 9a 80 41 bd f8 31 20 3d
       -0.042245127 -0.012651581 -0.047241785 0.039110154
000340 4f ca 63 bd 9f f7 91 3c 50 fa 42 3c 5f 38 16 3d
       -0.05561286 0.01781827 0.011900499 0.036674853
000350 dc 4b 4f 3d 6f 1e 15 3d 29 75 85 3d 7a 73 70 3d
       0.050609455 0.036405977 0.06516487 0.058703877
000360 28 f2 53 3d 5c 1a a6 bb 52 e1 73 3d 6e 03 86 bc
       0.05174461 -0.0050690603 0.059541054 -0.016359057
000370 14 c9 2c 3d c2 af 16 3d 8f 84 6d 3d 99 8f 2b bc
       0.04218395 0.03678871 0.057987746 -0.010471248
000380 2b 3b 04 3c 84 eb 5b 3d cc 77 81 bc 1e 08 3d bd
       0.008070747 0.053691402 -0.015804194 -0.04615032
000390 a4 30 51 bd 90 5a a0 3c 28 37 f9 3c 70 3a 3d 3c
       -0.051071778 0.019574434 0.030421808 0.011549577
0003a0 2e 3e 63 3d 42 b6 68 3c 59 b1 36 3d a8 2c 72 ba
       0.05547922 0.01420361 0.044602726 -0.00092382217
0003b0 d9 37 95 bc a1 d2 05 bd ae e6 7b 3d 10 bd 3d bd
       -0.018215107 -0.032671575 0.06149929 -0.046322882
0003c0 df cf 15 3d f0 a2 86 ba d6 33 39 bd d5 4b a6 bc
       0.036575194 -0.0010271948 -0.04521545 -0.020299831
0003d0 f2 c0 8a bb e3 22 10 bc 45 34 b6 bc d6 73 bb bc
       -0.0042344267 -0.00879738 -0.02224172 -0.022882383
0003e0 71 4c 3b bd 07 aa 99 3c 0a 20 50 3c a7 43 24 3c
       -0.045727197 0.018757833 0.012702951 0.010025895
0003f0 3a e2 39 3d ae 16 65 bd c4 38 3f 3b c4 af 80 ba
       0.045381762 -0.055929832 0.0029178122 -0.0009818007

value_fc.weight f4 [256, 256]
000000 64 1f 75 bd 2d d0 1f 3c 54 fa 72 bb 04 a3 45 3d
       -0.05984439 0.009754223 -0.0037075477 0.048251167
000010 08 43 ef bc 41 05 87 bd 3a d4 6b bd fd d1 4a bd
       -0.029206768 -0.06592799 -0.057575442 -0.049516667
000020 17 ba 57 bd ac ea a9 3c 21 46 41 bd 50 13 f7 3c
       -0.052667703 0.020741783 -0.04718602 0.030160576
000030 a9 ef 94 bc f0 de 37 3d fc c3 e2 3c c0 a9 c2 3c
       -0.018180685 0.044890344 0.027681343 0.023762584
000040 fb bf ca 3b 30 3c 34 3c f8 bc 28 bd 81 86 0e 3d
       0.0061874366 0.011000678 -0.04119584 0.03479624
000050 b0 84 d0 3c 06 a3 5e bc a8 cf 03 bc 05 4c 3e 3d
       0.025453895 -0.0135886725 -0.008045115 0.046459217
000060 a6 47 c6 3c a8 45 c9 bc 95 ae 46 bd 28 5f 2a bd
       0.024204087 -0.024569348 -0.04850634 -0.041594654
000070 10 4c 08 bc 0f 8f c2 3b 82 98 99 bc c8 f7 79 3b
       -0.008318916 0.005937464 -0.01874948 0.0038142074
000080 82 d0 04 bc 71 fb 3e 3d 7f 5a 34 bd 37 c2 25 bd
       -0.008106353 0.046626512 -0.044031616 -0.04046842
000090 00 44 dd bc f0 bf de bc 93 8e 21 bc b0 f3 30 bd
       -0.027009964 -0.027191132 -0.0098606525 -0.04320115
0000a0 0d 8a 18 3d 97 7b 69 bd a7 08 eb 3c 0c fc 22 bd
       0.03724103 -0.05700263 0.02869065 -0.039791152
0000b0 d6 ad 7f 3d 1f c2 78 bd 50 53 96 bb 65 bb 94 3b
       0.062421642 -0.060732003 -0.0045875683 0.0045389407
0000c0 d6 f0 71 bd 83 d7 6a bd 1c 13 cf bc a5 cb 3b bd
       -0.05906757 -0.057334434 -0.025277667 -0.045848507
0000d0 7e 63 ef bc 3d fc 22 bd e9 6c 41 bd f6 ea 8b bc
       -0.029222246 -0.039791334 -0.047223005 -0.017079812
0000e0 7e 77 62 bd 48 69 4a bc 31 35 dc bc a8 a9 25 3c
       -0.055289738 -0.012354203 -0.026880832 0.01011125
0000f0 f3 b6 6b bc 07 ca b3 bc 94 ca 1c bd b0 83 ce bc
       -0.01438688 -0.02194692 -0.03827913 -0.025209278
000100 d8 e2 9b bc 16 d0 3d 3d 1a ab c0 bc 31 fa 39 bd
       -0.019029066 0.046341024 -0.023519088 -0.045404617
000110 c6 36 81 bd e0 19 57 bd fc 4d 26 3c 5b 1b 7b bc
       -0.06309275 -0.05251491 0.010150429 -0.015326346
000120 04 47 ce 3c b7 2e dd 3c 60 69 60 bb a8 01 64 bd
       0.025180347 0.026999814 -0.0034242496 -0.055665642
000130 fa 74 6e bd 34 8b b5 bc f0 ec bd bc f4 0f 10 3d
       -0.058217026 -0.022161104 -0.02318427 0.035171464
000140 de 72 7f 3c a0 7d 1e 3c ec f2 81 3c ab 59 c2 3c
       0.015591351 0.009673506 0.015862904 0.023724398
000150 65 e2 4e bd 0c b0 3c 3b 91 b2 c6 3c 1c 19 9e 3c
       -0.050508875 0.0028791456 0.024255069 0.019299082
000160 9a cc 2a 3d 0b e5 15 bc 29 fd 54 3d 4c 1b bc 3c
       0.04169903 -0.009148846 0.051999245 0.022962235
000170 44 73 ca 3c 90 3d 63 3d 13 91 e8 3c c8 9c 85 bd
       0.024713166 0.055478632 0.02838949 -0.06524044
000180 b3 94 3b 3d 2f 4e 45 bd 9d ce a8 3b 73 f7 d6 3c
       0.045796108 -0.048170265 0.0051515833 0.02624104
000190 78 3f f2 bc 78 df d0 3c e0 bc 56 bb df cd 06 3c
       -0.02957128 0.025497183 -0.0032766387 0.008227794
0001a0 a3 dd 8f bc 0c 1b 58 3c ab 09 35 3b 75 81 06 3d
       -0.01756174 0.013190042 0.002762417 0.032838304
0001b0 9a 7d 5a 3d b3 e0 c3 3c 20 23 fa bc 44 ca 22 bd
       0.05334244 0.023910856 -0.030534327 -0.039743677
0001c0 75 43 92 bc ce d6 7b bc a9 a4 7d 3c 20 fa 2b bd
       -0.017854432 -0.015371038 0.015481153 -0.041986585
0001d0 9a 56 20 3d a1 3d 26 3d 43 e6 4f 3d b4 21 43 3d
       0.03914509 0.040586118 0.050756704 0.047639564
0001e0 3b 44 d6 3c bb 4e 4a 3d fa 4e 5f bd 36 e6 8c bc
       0.026155582 0.04939149 -0.054518677 -0.017199617
0001f0 b0 65 d5 3c 58 1b 08 3c 3e 00 5b 3d 6b bb 5f 3c
       0.026049465 0.0083073005 0.053467028 0.013655524
000200 bc ae 97 3c 78 97 40 3d 84 45 18 bc 92 7a f8 3b
       0.018515937 0.04701945 -0.009293918 0.007582971
000210 96 4a 47 bd 00 9a 2f 3d 80 c7 66 3d 6c 65 5f bd
       -0.048655115 0.042871475 0.0563426 -0.054540083
000220 03 4e e1 bc 8e 5f 27 bd 28 ce a7 bb 00 70 83 b9
       -0.02750302 -0.040862612 -0.0051210113 -0.00025069714
000230 52 e8 0f bd e0 7d 1b 3d a7 2a 30 bd 04 da 28 3c
       -0.035133667 0.03796184 -0.043009426 0.010305885
000240 a2 7e 13 bd 50 c7 82 bb 33 33 e7 bc 5d dd d1 3c
       -0.03600944 -0.003991045 -0.028222656 0.02561825
000250 df f3 18 bd b7 80 c9 bb 70 6f 65 3d f1 e4 24 3c
       -0.03734195 -0.006149377 0.05601448 0.0100643495
000260 c6 32 ab 3c 09 83 6d 3d e8 b3 5e 3c 42 10 2a bd
       0.020898234 0.057986293 0.013592698 -0.04151941
000270 c5 64 cb bc 96 39 1f bd b5 63 82 bd e8 54 71 bc
       -0.024828324 -0.038873278 -0.06366674 -0.014729716
000280 68 56 e1 bc a8 60 1f 3c 6c ee ba 3c 1f 41 1f bd
       -0.027507022 0.0097276345 0.022818767 -0.038880464
000290 e7 bd f1 3c 05 59 2d bd 7a 84 0e bd d3 f6 b1 bb
       0.029509498 -0.042321224 -0.03479431 -0.005431035
0002a0 c0 b1 fa bb a2 ab 31 3d e4 cf 63 bc 88 d6 7a 3d
       -0.007650584 0.043376572 -0.013904545 0.06123975
0002b0 f5 5d 2f 3d 1f 6a 33 3d 11 0e 18 3d 78 92 6f bd
       0.042814214 0.043802377 0.03712279 -0.058489293
0002c0 20 3b 38 3c 6d af db ba 83 5c ad bb a4 dd f4 3c
       0.011244565 -0.0016760655 -0.0052905693 0.029890843
0002d0 78 75 0b bd 17 2c 09 3d 8c 38 4b 3d bb 0b 81 3c
       -0.034047574 0.033489313 0.049614474 0.015752664
0002e0 03 56 30 bd b8 e2 50 3c 70 cc 73 3c f0 f9 8a 3c
       -0.043050777 0.012749366 0.014880285 0.016964883
0002f0 b8 eb 6b bc 8c b0 ee 3c 08 07 46 3c f4 c3 3d bd
       -0.014399461 0.029136918 0.012086637 -0.046329454
000300 f7 52 a2 bc c8 95 0d 3c 24 65 fc 3c 92 ae 63 3d
       -0.019814951 0.008641668 0.030809946 0.055586405
000310 db dd 79 3d d7 e1 75 3d 74 e5 7c bd 1f 18 80 bb
       0.061002593 0.06002983 -0.06174226 -0.0039091255
000320 2e b4 26 bd e0 7d 27 3d d2 73 76 bd 47 ad 2b 3d
       -0.040699176 0.040891528 -0.06016905 0.041913297
000330 01 1a eb bc 5f dc 61 3d 58 2a 93 bc 96 79 15 bd
       -0.028698923 0.055141803 -0.017964527 -0.036492907
000340 e9 55 6f bd 80 68 b5 bc 37 ab ac bc a7 c8 e4 3c
       -0.05843154 -0.022144556 -0.021077735 0.02792771
000350 00 0d 58 3b dc ad 62 3d 0d 87 9d bc 2e 99 36 3d
       0.0032966733 0.055341586 -0.019229436 0.044579677
000360 5c ef 04 3d 38 da cc 3c c0 75 0c bc aa 77 3b bd
       0.032454833 0.025006399 -0.008572996 -0.045768417
000370 aa bd 75 3d 3f f8 c1 bc 32 0b f1 3c 04 77 20 3d
       0.05999533 -0.023677943 0.029424284 0.039176002
000380 21 6e 05 3d 6c b2 ec bc 37 6a 6e bd 30 aa 7c bc
       0.03257573 -0.028893672 -0.058206763 -0.015421435
000390 d0 d4 01 3d 40 b9 95 3a ac 32 27 3c d4 13 f6 bb
       0.031697094 0.0011423007 0.010204952 -0.007509688
0003a0 c2 e0 d4 3a d7 d5 d8 bc f8 7f 45 3d 7e 8c 6d 3d
       0.00162413 -0.026469154 0.048217744 0.057995312
0003b0 32 7c af 3c 98 45 3c bc 3e 88 65 bd da 6c 4a 3d
       0.021421526 -0.011491202 -0.056038134 0.049420215
0003c0 6b 73 32 bc d6 f7 3a 3c 5c 1d 1a bd 21 f3 cf bc
       -0.010891776 0.011411628 -0.037625656 -0.025384488
0003d0 54 0e f1 3c ec 87 7d 3d ee f0 75 3d 52 ea 7d bd
       0.029425777 0.061897203 0.06004422 -0.061991043
0003e0 0b 4a 79 bd 80 4f 39 3d 94 28 44 bd 9e b1 f8 bc
       -0.06086163 0.045241833 -0.04789026 -0.030358132
0003f0 76 63 26 3d c0 9e 21 bb 3c 52 ab 3c 88 93 6a bd
       0.040622197 -0.0024661273 0.020913236 -0.057269603

value_fc.bias f4 [256]
000000 a5 4d f6 bb 25 ce 86 bd c9 ee 02 bd e5 f1 58 bb
       -0.00751658 -0.06582288 -0.031966005 -0.0033103165
000010 6c 5d 42 3d 32 86 52 3d 9d 05 bc 3c 9d dd 50 3d
       0.047452375 0.05139751 0.022951895 0.050992597
000020 ce 30 01 3d a7 4c 4a bd d0 ab 55 3c ed da 7f bd
       0.031540684 -0.049389508 0.013041452 -0.062464643
000030 ec 22 8d 3d de 8b 7c bc 82 73 7e 3d fc 1d 4b 3c
       0.068914264 -0.015414206 0.062121876 0.012397286
000040 f9 a8 84 3d 4e e1 6f bd 76 f1 29 3d 5c c7 35 bd
       0.064775415 -0.058564477 0.04149004 -0.044379577
000050 8c e8 b4 ba 71 ca af bc bd cd 49 3d fa 9e 0a 3c
       -0.0013802215 -0.021458836 0.049268473 0.0084607545
000060 98 2b ba bc c8 fb a6 bb 94 1e 16 3d 7d 11 bd bc
       -0.022725865 -0.0050959326 0.036650255 -0.023079628
000070 cd 06 a6 3b a6 30 a0 bc 17 17 1a bc e6 ef cb bb
       0.0050667287 -0.019554447 -0.009404919 -0.0062236665
000080 d9 c2 be bc d1 e5 56 3d af 5a 47 3d 8e e0 16 3d
       -0.02328627 0.052465264 0.048670467 0.036835246
000090 ea 4d 03 bd cf ab 09 bd 9c 0a 40 bb ae 0c 7f bd
       -0.032056727 -0.033611115 -0.0029303199 -0.06226795
0000a0 d7 2f 60 bd c4 e2 39 bd b2 93 56 bd 74 1f dd bc
       -0.054733124 -0.045382276 -0.052386947 -0.026992537
0000b0 25 22 38 3d 03 98 fb 3b 06 86 3c bc 3e 25 05 bd
       0.044954438 0.0076780333 -0.011506563 -0.03250622
0000c0 82 e3 42 bd f5 30 17 3d 4e 8e ee 3a 00 06 67 3d
       -0.04758025 0.036911923 0.0018200369 0.056402206
0000d0 bc 13 4f bd c3 a5 9f 3c 42 b1 52 3d 84 38 54 bd
       -0.05055593 0.019488221 0.051438577 -0.05181171
0000e0 d2 b4 be bb e0 78 e5 3c 48 de 82 3d 5d ed 16 bd
       -0.0058198953 0.02801174 0.06390053 -0.03684746
0000f0 c5 29 22 3d 08 1a 78 3d af aa 9d 3d 49 78 70 3c
       0.039590616 0.0605717 0.07698571 0.014677116
000100 11 4d 6c bd ca 89 7f 3b 09 f9 35 3c b6 56 27 ba
       -0.057690684 0.003899204 0.011106738 -0.00063834654
000110 45 a1 69 3d 33 24 06 3d 4d fb d5 3c aa 8f 91 3a
       0.057038564 0.032749366 0.026120806 0.0011105437
000120 72 94 86 3c e3 46 2e 3d 70 4b 3b bd c1 72 2d 3d
       0.016428206 0.04254807 -0.04572624 0.042345766
000130 63 a7 63 bc 37 8c 16 3c 53 b7 c6 3c 0b f5 72 bc
       -0.013894889 0.009188703 0.024257338 -0.014828931
000140 b5 fc 4b 3d b2 5e 55 3d 5a e1 7c 3c 72 01 83 3c
       0.049801547 0.05209226 0.015434587 0.0159919
000150 db 6b 4e bd 86 62 2d 3d 50 1a 15 3d aa e6 cb 39
       -0.050395828 0.042330287 0.036402047 0.00038891035
000160 01 75 7a bd 83 9d f7 3c 1a 27 01 bd 34 0d 1c bd
       -0.06114674 0.030226475 -0.03153143 -0.03809853
000170 08 1e 45 bd de 32 95 3d d6 7d 58 3c ae c0 81 bb
       -0.048124343 0.07285093 0.013213595 -0.003959737
000180 bc 73 98 3c 41 66 06 3c 6c d8 51 bd be 5f 05 bc
       0.018609874 0.00820309 -0.051231787 -0.0081405025
000190 91 48 91 3b dc ea 2b bd 77 8f 4e bd ba a0 39 3d
       0.0044336994 -0.041972026 -0.050429787 0.045319296
0001a0 e5 0c 45 3c 0e ff 0b bd 9b a2 03 3d 01 a9 27 3d
       0.012027 -0.034178786 0.032137495 0.04093266
0001b0 f7 7e 76 bd 83 80 5d 3d 15 04 23 3d 41 03 fd bc
       -0.060179677 0.054077636 0.039798815 -0.03088534
0001c0 10 b0 6e bd 39 d4 d9 3c a2 55 79 3c 1e f2 d2 3b
       -0.058273375 0.026590453 0.01521817 0.006437554
0001d0 48 77 6a bd 63 b5 e1 3c 44 d2 1d bd c9 f1 db 3b
       -0.05724266 0.027552312 -0.038530603 0.0067121726
0001e0 13 5e 00 3d 3b c6 20 bb d4 ee 09 bd dd d0 62 3d
       0.031339716 -0.0024532217 -0.03367503 0.05537497
0001f0 83 a3 b5 ba 13 1d 21 39 8b 65 24 3d 63 4c 0a bd
       -0.0013857934 0.00015364987 0.0401359 -0.033764254
000200 39 c1 4d 3d 58 19 36 3d c9 ec 8e 3d 06 d7 0c 3d
       0.0502331 0.044457763 0.06978757 0.03438475
000210 06 d6 38 3c 05 6f 0f bb 4c 9e 2c 3d 6d 7a 44 3d
       0.011281496 -0.002188624 0.04214315 0.047968317
000220 f8 3d 28 bc e0 bf 3f 3d 23 ac 83 bd 05 eb 3f bd
       -0.010268681 0.046813846 -0.06429317 -0.04685499
000230 44 08 3e 3d 1a 41 36 bd ad 91 88 3c b0 22 0d bd
       0.0463946 -0.04449568 0.016671026 -0.03445691
000240 22 84 11 bd b2 d0 ee bc e7 d0 e2 bc 63 8a 7f bc
       -0.035526402 -0.029152248 -0.027687503 -0.015596959
000250 5c f0 29 bd eb 7a 16 bd 03 b6 ee bc 47 40 b2 3c
       -0.04148899 -0.036738317 -0.029139524 0.021759165
000260 79 ab 3f bd 0d 00 42 3d fd 2b 28 3d 78 02 a8 bc
       -0.04679439 0.04736333 0.041057575 -0.02050899
000270 8e 84 e6 bc b5 6d 4e bc f5 6c 8d 3c 88 4a d1 bc
       -0.028139379 -0.012599398 0.017263869 -0.025548235
000280 b3 1d a1 bb 5e 91 1b bc 7c 1f 29 3d ad f1 57 3d
       -0.0049168705 -0.009495107 0.04128979 0.052720714
000290 6e 35 06 3c 1c 67 10 3d ce 1a 5c 3d 9d cb bb 3a
       0.00819145 0.035254583 0.0537365 0.0014327649
0002a0 8b ee 14 3c 73 4c 12 bd 29 77 0a 3d f3 37 35 3d
       0.009090076 -0.03571744 0.033805046 0.04424281
0002b0 3e 54 9e 38 c0 52 c4 3c bc 43 8b bc a0 30 a7 3b
       7.5497184e-05 0.02396524 -0.017000072 0.005102232
0002c0 22 ef 1c 3c 26 a0 8c 3d bb 89 32 bd 21 b7 da 3c
       0.009578498 0.068664834 -0.04358838 0.02669865
0002d0 c2 ff 94 bc ef c2 37 3d 85 41 b2 bc 7d 7d 80 3d
       -0.018188361 0.044863638 -0.021759758 0.06273935
0002e0 97 44 80 3b 4c e9 37 3d 68 b7 ff 3b 19 0e 8d 3d
       0.0039144265 0.044900224 0.007803846 0.068874545
0002f0 e7 42 60 3d 57 69 4c 3d 89 ed 8b bc 19 67 6f 3d
       0.054751303 0.049905147 -0.017081039 0.05844793
000300 13 e7 c9 bb 78 e6 66 bd 43 69 b7 b9 32 46 b7 bc
       -0.0061615794 -0.056372136 -0.00034982906 -0.022372339
000310 4e b7 31 3d 67 7e 64 3d a7 39 85 3d 8f 1c 19 3d
       0.043387704 0.05578461 0.06505137 0.03738075
000320 d8 1f 21 3c 5a 0c 34 3d 31 3e bb 3c d7 f3 89 bc
       0.009834252 0.043957092 0.022856804 -0.016839905
000330 db 0b 7d 3b 54 87 90 3c c3 61 ca bb c5 b7 2b 3b
       0.0038611803 0.017642654 -0.006176205 0.0026202064
000340 32 6d 25 3d d3 16 5a 3d 77 da 09 3d aa 18 6b bd
       0.04038734 0.053244423 0.03365561 -0.05739657
000350 e9 82 86 3d df 1a 59 3d c2 77 68 bc 80 ea 83 bc
       0.06567938 0.053004142 -0.014188709 -0.01610303
000360 0e ee 15 bc 85 f9 04 3d e9 19 50 3d 1c 96 50 3d
       -0.009150995 0.032464523 0.05080596 0.050924405
000370 ec e2 a9 ba f1 f9 02 3d 78 07 53 bd 75 4e 43 bc
       -0.0012961305 0.031976644 -0.051520795 -0.011920561
000380 dd 85 66 3d ec 3d eb bc ff f1 40 bd 9f a6 91 bb
       0.056280006 -0.02871605 -0.047105785 -0.0044449116
000390 f2 3e 20 bd 6c b7 cc 3c 90 cf 39 bd 58 ea 75 3d
       -0.03912253 0.024989806 -0.045363963 0.06003794
0003a0 41 08 98 bc a4 24 02 bd 5b 86 92 3a 0e 4d 24 3d
       -0.018558623 -0.031773224 0.0011178957 0.040112548
0003b0 ec fc 62 bd 52 9e e1 3c 31 e7 10 3d fe f4 4b bd
       -0.055416986 0.027541313 0.03537673 -0.04979419
0003c0 d3 54 2a bd 2b fb e5 3c f0 27 ce 3c b7 6b 85 3d
       -0.0415848 0.028073868 0.025165528 0.065146856
0003d0 3d 1a 46 bd 91 03 6e bd 7c 4e 38 3d 69 1a 5d bd
       -0.048364867 -0.05810887 0.044996724 -0.053980265
0003e0 99 da 19 bd 1a cf 42 bd 69 95 1e bd 02 5f ca 3c
       -0.037561987 -0.04756079 -0.038716707 0.024703506
0003f0 60 19 81 3d de 32 02 3c a9 18 26 3d 37 57 52 bd
       0.06303668 0.007946698 0.04055086 -0.051352706

value_output.weight f4 [1, 256]
000000 f8 9c 8f bb 9e 0c 11 be 4a 74 59 3d 10 ef a1 3e
       -0.004382726 -0.1416497 0.053089418 0.31627703
000010 36 4c 92 3d 0e b0 d1 bd 00 71 bd be 4f 03 15 be
       0.07143442 -0.10238658 -0.37000275 -0.14552043
000020 96 09 75 be 81 27 99 bd 92 bd 89 be a4 d5 fa bd
       -0.23929438 -0.07478238 -0.26902443 -0.1224778
000030 09 6c e2 bd b7 f4 b4 bd b6 4c cd 3d 6e 5b 59 be
       -0.11055762 -0.08835738 0.10024397 -0.21226284
000040 2b b4 6b bd cb 9e 76 bc 13 91 98 3d 28 6c 12 3d
       -0.05754487 -0.015052508 0.07449546 0.035747677
000050 73 60 9d bd 62 3d e0 bc 49 c8 8a 3d b5 14 a0 be
       -0.07684412 -0.02737302 0.067764826 -0.31265798
000060 0a ce 4b bd 02 ed 90 bd 4a ae 4d be 01 ed 50 3d
       -0.04975704 -0.07076456 -0.20086017 0.051007275
000070 be 78 db bc 82 f1 f3 3d c5 7f 08 3e 0a 11 16 3e
       -0.026790973 0.11911298 0.1332999 0.14654937
000080 2e 90 74 bd 9b e1 02 3e ce 98 93 3d 07 02 12 3e
       -0.059707813 0.12781374 0.072068796 0.14258586
000090 7e e9 d9 3d 64 f3 9c 3d 8f 26 fb 3d 18 9b 7c 3d
       0.10640238 0.076636106 0.12263214 0.061671346
0000a0 da db fb 3d 72 6f 15 3d 82 5d 81 3c f3 37 59 be
       0.12297793 0.036483236 0.015791658 -0.21212749
0000b0 39 95 a7 3d 79 73 8f 3d 09 20 65 bd 6f 0c 48 bd
       0.08182759 0.070044465 -0.055938754 -0.048839983
0000c0 a8 6f e7 bc d5 e3 01 3e 5c 80 4c be 83 2a 7f 3d
       -0.028251484 0.12684567 -0.1997084 0.0622964
0000d0 d3 27 70 bd 80 45 bc bd ef af 1b 3e f8 4b 2d 3c
       -0.05863173 -0.091929436 0.15203832 0.010577194
0000e0 58 10 38 3d 11 80 31 be 89 72 e8 bd ee c4 8d 3c
       0.04493746 -0.1733401 -0.11349971 0.017305817
0000f0 4c 78 57 be 10 3a e8 3d 51 b2 81 bd c9 dc 91 3d
       -0.21041983 0.113391995 -0.06332839 0.071221896
000100 8a 95 37 3e 0a 5a cb 3d f0 4f 30 3e 68 16 8b 3c
       0.17928138 0.09929283 0.17217994 0.016978458
000110 c7 81 bd 3d 27 32 b8 3d f0 35 aa bd 1f 23 a5 bd
       0.09253269 0.08993941 -0.08311069 -0.080633394
000120 03 b2 48 be 61 84 03 be 74 f0 4c 3d ff 88 c7 3d
       -0.19599156 -0.12843467 0.050034 0.09742927
000130 4e 80 e4 3b 49 f8 23 be 59 5f 1a 3e 17 25 bd bc
       0.006973303 -0.16012682 0.15075435 -0.023088975
000140 c5 e5 76 3d d9 13 c4 3d 31 31 4e bd 9a 72 51 be
       0.06027772 0.09574098 -0.05033988 -0.20453873
000150 eb f5 8e 3d af 81 b1 3d 37 ca f7 bc cb 04 94 be
       0.06980499 0.08667313 -0.03024779 -0.28909907
000160 95 7d d4 3c 44 92 ef 3d 8e 20 05 3e 1e 36 29 3d
       0.025938788 0.1169782 0.130007 0.041311376
000170 50 86 97 3c e1 c4 c8 bd dc 28 58 be 59 f2 4f be
       0.018496662 -0.09803177 -0.21109337 -0.20307292
000180 79 84 ef 3d e3 4e 85 bd 36 9a 47 bc 54 2e 47 be
       0.11695189 -0.06509187 -0.012182763 -0.19451267
000190 95 ce f0 3d ee f6 45 3d 44 34 86 bc 9b 43 08 3e
       0.117581524 0.048331194 -0.016382344 0.1330704
0001a0 04 18 08 be 88 2a 4a 3c 5b 8f 2e be 2a 5f fb 3d
       -0.13290411 0.012339242 -0.17046873 0.122740105
0001b0 99 66 77 3e 6b 1f a5 3d dc c3 e6 3d 25 a9 8a be
       0.24160232 0.08062633 0.11267826 -0.27082172
0001c0 74 5d ab bc 47 7a d3 bd 17 e3 a3 be 5b f5 f1 3d
       -0.020918585 -0.10326057 -0.32009193 0.11814376
0001d0 18 4a fd bc e1 c6 d2 3d 43 66 2f 3e 4b 35 79 3c
       -0.03091912 0.102918394 0.17128853 0.01521046
0001e0 06 ac 59 3d 11 e1 61 3e a4 72 3f bd cb 48 6e be
       0.05314257 0.22058512 -0.04674019 -0.23269956
0001f0 c9 a3 cf 3d 22 4e 54 3e 5e f3 ab bc 1b 06 7d 3a
       0.101386614 0.2073293 -0.02099007 0.0009652094
000200 8c c5 e8 bd 37 c1 9c bd 7f ac a3 3e b7 84 17 3e
       -0.11365804 -0.0765404 0.31967542 0.1479672
000210 0b 79 37 be 70 01 02 3e 16 1b 99 bd 9b c2 89 3d
       -0.17917268 0.12695861 -0.07475869 0.06726571
000220 36 9b ed bd 00 e4 8c bd 66 20 c8 bc 14 c8 0b 3d
       -0.1160187 -0.06879425 -0.024429511 0.034126356
000230 7b 63 a6 bd 90 11 e5 bb 29 c5 fc 3d d6 e6 9b be
       -0.08124443 -0.006990619 0.12342293 -0.3044955
000240 ad 5e b3 3d 3c 20 2f be 14 75 63 bb b8 2d 15 3e
       0.08758292 -0.1710214 -0.0034707235 0.14568222
000250 4b b8 01 be 42 4c c4 3d 16 2e 72 ba 33 eb 0c 3e
       -0.12667958 0.095848575 -0.0009238435 0.13761596
000260 ca 4d c3 bd bc d6 0c be ba f8 ae bd 8c ca d0 bb
       -0.095363215 -0.1375379 -0.085435346 -0.0063718017
000270 da ce 44 be c8 07 b0 bd 72 fb 83 3d 2e 0a a9 3d
       -0.19219533 -0.08595234 0.06444444 0.08253895
000280 c5 f5 26 3d 63 49 db bd 78 ab 49 3d 67 5a c7 3d
       0.040761728 -0.10707357 0.04923579 0.0973404
000290 0d a5 0c 3e 46 ca 71 bd 9c ec b4 3d 98 6c fd bd
       0.13734837 -0.059030794 0.08834192 -0.12374228
0002a0 e9 12 55 3c 9d 97 f2 3d e2 a2 da 3d ed 97 0a 3e
       0.013004997 0.11845324 0.10675599 0.13534518
0002b0 eb 4c 5c bd f5 a1 0b 3e a3 c7 22 be e0 6e 92 3c
       -0.053784292 0.13636 -0.15896468 0.017875135
0002c0 b0 7a ae 3d 57 a1 b9 bd 7a f1 76 b8 93 0c be 3d
       0.085194945 -0.09063976 -5.8875863e-05 0.09279742
0002d0 0a c9 13 bd 3d 3b 98 bd 2b 59 fd 3d 76 b4 b9 bd
       -0.036080398 -0.07433174 0.12370523 -0.09067623
0002e0 c1 fe 95 3e c9 db b8 3d 63 81 96 3d 24 a4 7f 3d
       0.29295924 0.09026296 0.07348897 0.062412396
0002f0 15 c7 db bd 20 5d 01 3e 49 c6 2b 3d c7 e6 46 be
       -0.10731331 0.1263318 0.041937146 -0.19423972
000300 72 be c0 bd 1c e4 7c 3d 48 fb 5f be 80 c4 79 bc
       -0.094113246 0.06174098 -0.218732 -0.015244603
000310 17 cb 4b be d3 f5 c5 bd df f7 67 bd 51 82 da 3d
       -0.19901691 -0.09666028 -0.056632873 0.10669387
000320 3f ea 5f 3c a2 f1 a3 3d 2a 21 87 3d c8 84 06 3e
       0.013666688 0.08005072 0.065981224 0.1313659
000330 36 eb c3 3d 96 e0 20 bd c7 a0 6b 3d a3 ff 7f 3d
       0.09566347 -0.03927668 0.057526376 0.062499654
000340 08 6d a9 bd fc 8a ac bd a4 64 96 3d 8e dc 27 bd
       -0.08272749 -0.08424947 0.073434144 -0.04098182
000350 f2 db 79 3d 76 fa 63 bd a1 7b 33 3e 10 82 49 3d
       0.06100077 -0.05565878 0.1752763 0.049196303
000360 9f 35 fc bd 31 78 fa bd 31 7c c7 3d ba 1c 8f bd
       -0.12314915 -0.12229956 0.097404845 -0.06987901
000370 53 76 26 be b0 4c 7a 3e 45 a4 dd 3d 3a 95 a2 3d
       -0.16256075 0.24443316 0.108223476 0.07938619
000380 67 e5 f1 bd 78 e5 36 bd 16 56 22 be 3a 63 0d be
       -0.11811333 -0.044652432 -0.15853152 -0.13807383
000390 14 8d 68 3d a3 91 e3 3d f4 d4 53 bd 76 31 c8 3d
       0.056775168 0.111117624 -0.05171676 0.09775059
0003a0 a1 42 26 bd fa 52 c4 3d c3 fc 1a be 36 89 03 3e
       -0.040590886 0.09586139 -0.15135483 0.1284531
0003b0 70 49 74 bd b9 e8 b5 3d b4 41 98 3d ac d2 27 bd
       -0.059640348 0.08882279 0.07434407 -0.040972397
0003c0 77 ee 9c bc d4 4c d3 bd 28 59 ed 3d 73 96 9e 3d
       -0.019156678 -0.10317388 0.11589271 0.0774354
0003d0 22 eb 4b bd bf de a8 bc 6e e3 45 be e2 44 b6 3b
       -0.049784787 -0.020614026 -0.19325039 0.0055624107
0003e0 32 5d d2 bd 54 02 c2 bd 33 b6 c9 3d 15 b7 bf bd
       -0.10271682 -0.094731 0.09849205 -0.09361092
0003f0 35 9d 58 be b9 4c 49 be c6 22 da bd e7 33 ea bd
       -0.2115372 -0.19658174 -0.10651164 -0.11435681
